…
optimizer=False, no_save_flo=False, num_head=1, num_scales=1, num_steps=100000, num_transformer_layers=6, num_workers=4, output_path='output', padding_factor=16, pred_bidir_flow=False, prop_radius_list=[-1], resume=None, save_ckpt_freq=10000, save_eval_to_file=False, save_flo_flow=False, save_latest_ckpt_freq=1000, save_vis_flow=False, seed=326, stage='sintel', strict_resume=False, submission=False, summary_freq=100, upsample_factor=8, val_dataset=['sintel'], val_freq=20000, weight_decay=0.0001, with_speed_metric=True)
GPU Num =  0
Model definition:
GMFlow(
  (backbone): CNNEncoder(
    (conv1): Conv2d(3, 64, kernel_size=(7, 7), stride=(2, 2), padding=(3, 3), bias=False)
    (norm1): InstanceNorm2d(64, eps=1e-05, momentum=0.1, affine=False, track_running_stats=False)
    (relu1): ReLU(inplace=True)
    (layer1): Sequential(
      (0): ResidualBlock(
        (conv1): Conv2d(64, 64, kernel_size=(3, 3), stride=(1, 1), padding=(1, 1), bias=False)
        (conv2): Conv2d(64, 64, kernel_size=(3, 3), stride=(1, 1), padding=(1, 1), bias=False)
        (relu): ReLU(inplace=True)
        (norm1): InstanceNorm2d(64, eps=1e-05, momentum=0.1, affine=False, track_running_stats=False)
        (norm2): InstanceNorm2d(64, eps=1e-05, momentum=0.1, affine=False, track_running_stats=False)
      )
      (1): ResidualBlock(
        (conv1): Conv2d(64, 64, kernel_size=(3, 3), stride=(1, 1), padding=(1, 1), bias=False)
        (conv2): Conv2d(64, 64, kernel_size=(3, 3), stride=(1, 1), padding=(1, 1), bias=False)
        (relu): ReLU(inplace=True)
        (norm1): InstanceNorm2d(64, eps=1e-05, momentum=0.1, affine=False, track_running_stats=False)
        (norm2): InstanceNorm2d(64, eps=1e-05, momentum=0.1, affine=False, track_running_stats=False)
      )
    )
    (layer2): Sequential(
      (0): ResidualBlock(
        (conv1): Conv2d(64, 96, kernel_size=(3, 3), stride=(2, 2), padding=(1, 1), bias=False)
        (conv2): Conv2d(96, 96, kernel_size=(3, 3), stride=(1, 1), padding=(1, 1), bias=False)
        (relu): ReLU(inplace=True)
        (norm1): InstanceNorm2d(96, eps=1e-05, momentum=0.1, affine=False, track_running_stats=False)
        (norm2): InstanceNorm2d(96, eps=1e-05, momentum=0.1, affine=False, track_running_stats=False)
        (norm3): InstanceNorm2d(96, eps=1e-05, momentum=0.1, affine=False, track_running_stats=False)
        (downsample): Sequential(
          (0): Conv2d(64, 96, kernel_size=(1, 1), stride=(2, 2))
          (1): InstanceNorm2d(96, eps=1e-05, momentum=0.1, affine=False, track_running_stats=False)
        )
      )
      (1): ResidualBlock(
        (conv1): Conv2d(96, 96, kernel_size=(3, 3), stride=(1, 1), padding=(1, 1), bias=False)
        (conv2): Conv2d(96, 96, kernel_size=(3, 3), stride=(1, 1), padding=(1, 1), bias=False)
        (relu): ReLU(inplace=True)
        (norm1): InstanceNorm2d(96, eps=1e-05, momentum=0.1, affine=False, track_running_stats=False)
        (norm2): InstanceNorm2d(96, eps=1e-05, momentum=0.1, affine=False, track_running_stats=False)
      )
    )
    (layer3): Sequential(
      (0): ResidualBlock(
        (conv1): Conv2d(96, 128, kernel_size=(3, 3), stride=(2, 2), padding=(1, 1), bias=False)
        (conv2): Conv2d(128, 128, kernel_size=(3, 3), stride=(1, 1), padding=(1, 1), bias=False)
        (relu): ReLU(inplace=True)
        (norm1): InstanceNorm2d(128, eps=1e-05, momentum=0.1, affine=False, track_running_stats=False)
        (norm2): InstanceNorm2d(128, eps=1e-05, momentum=0.1, affine=False, track_running_stats=False)
        (norm3): InstanceNorm2d(128, eps=1e-05, momentum=0.1, affine=False, track_running_stats=False)
        (downsample): Sequential(
          (0): Conv2d(96, 128, kernel_size=(1, 1), stride=(2, 2))
          (1): InstanceNorm2d(128, eps=1e-05, momentum=0.1, affine=False, track_running_stats=False)
        )
      )
      (1): ResidualBlock(
        (conv1): Conv2d(128, 128, kernel_size=(3, 3), stride=(1, 1), padding=(1, 1), bias=False)
        (conv2): Conv2d(128, 128, kernel_size=(3, 3), stride=(1, 1), padding=(1, 1), bias=False)
        (relu): ReLU(inplace=True)
        (norm1): InstanceNorm2d(128, eps=1e-05, momentum=0.1, affine=False, track_running_stats=False)
        (norm2): InstanceNorm2d(128, eps=1e-05, momentum=0.1, affine=False, track_running_stats=False)
      )
    )
    (conv2): Conv2d(128, 128, kernel_size=(1, 1), stride=(1, 1))
  )
  (transformer): FeatureTransformer(
    (layers): ModuleList(
      (0): TransformerBlock(
        (self_attn): TransformerLayer(
          (q_proj): Linear(in_features=128, out_features=128, bias=False)
          (k_proj): Linear(in_features=128, out_features=128, bias=False)
          (v_proj): Linear(in_features=128, out_features=128, bias=False)
          (merge): Linear(in_features=128, out_features=128, bias=False)
          (norm1): LayerNorm((128,), eps=1e-05, elementwise_affine=True)
        )
        (cross_attn_ffn): TransformerLayer(
          (q_proj): Linear(in_features=128, out_features=128, bias=False)
          (k_proj): Linear(in_features=128, out_features=128, bias=False)
          (v_proj): Linear(in_features=128, out_features=128, bias=False)
          (merge): Linear(in_features=128, out_features=128, bias=False)
          (norm1): LayerNorm((128,), eps=1e-05, elementwise_affine=True)
          (mlp): Sequential(
            (0): Linear(in_features=256, out_features=1024, bias=False)
            (1): GELU(approximate='none')
            (2): Linear(in_features=1024, out_features=128, bias=False)
          )
          (norm2): LayerNorm((128,), eps=1e-05, elementwise_affine=True)
        )
      )
      (1): TransformerBlock(
        (self_attn): TransformerLayer(
          (q_proj): Linear(in_features=128, out_features=128, bias=False)
          (k_proj): Linear(in_features=128, out_features=128, bias=False)
          (v_proj): Linear(in_features=128, out_features=128, bias=False)
          (merge): Linear(in_features=128, out_features=128, bias=False)
          (norm1): LayerNorm((128,), eps=1e-05, elementwise_affine=True)
        )
        (cross_attn_ffn): TransformerLayer(
          (q_proj): Linear(in_features=128, out_features=128, bias=False)
          (k_proj): Linear(in_features=128, out_features=128, bias=False)
          (v_proj): Linear(in_features=128, out_features=128, bias=False)
          (merge): Linear(in_features=128, out_features=128, bias=False)
          (norm1): LayerNorm((128,), eps=1e-05, elementwise_affine=True)
          (mlp): Sequential(
            (0): Linear(in_features=256, out_features=1024, bias=False)
            (1): GELU(approximate='none')
            (2): Linear(in_features=1024, out_features=128, bias=False)
          )
          (norm2): LayerNorm((128,), eps=1e-05, elementwise_affine=True)
        )
      )
      (2): TransformerBlock(
        (self_attn): TransformerLayer(
          (q_proj): Linear(in_features=128, out_features=128, bias=False)
          (k_proj): Linear(in_features=128, out_features=128, bias=False)
          (v_proj): Linear(in_features=128, out_features=128, bias=False)
          (merge): Linear(in_features=128, out_features=128, bias=False)
          (norm1): LayerNorm((128,), eps=1e-05, elementwise_affine=True)
        )
        (cross_attn_ffn): TransformerLayer(
          (q_proj): Linear(in_features=128, out_features=128, bias=False)
          (k_proj): Linear(in_features=128, out_features=128, bias=False)
          (v_proj): Linear(in_features=128, out_features=128, bias=False)
          (merge): Linear(in_features=128, out_features=128, bias=False)
          (norm1): LayerNorm((128,), eps=1e-05, elementwise_affine=True)
          (mlp): Sequential(
            (0): Linear(in_features=256, out_features=1024, bias=False)
            (1): GELU(approximate='none')
            (2): Linear(in_features=1024, out_features=128, bias=False)
          )
          (norm2): LayerNorm((128,), eps=1e-05, elementwise_affine=True)
        )
      )
      (3): TransformerBlock(
        (self_attn): TransformerLayer(
          (q_proj): Linear(in_features=128, out_features=128, bias=False)
          (k_proj): Linear(in_features=128, out_features=128, bias=False)
          (v_proj): Linear(in_features=128, out_features=128, bias=False)
          (merge): Linear(in_features=128, out_features=128, bias=False)
          (norm1): LayerNorm((128,), eps=1e-05, elementwise_affine=True)
        )
        (cross_attn_ffn): TransformerLayer(
          (q_proj): Linear(in_features=128, out_features=128, bias=False)
          (k_proj): Linear(in_features=128, out_features=128, bias=False)
          (v_proj): Linear(in_features=128, out_features=128, bias=False)
          (merge): Linear(in_features=128, out_features=128, bias=False)
          (norm1): LayerNorm((128,), eps=1e-05, elementwise_affine=True)
          (mlp): Sequential(
            (0): Linear(in_features=256, out_features=1024, bias=False)
            (1): GELU(approximate='none')
            (2): Linear(in_features=1024, out_features=128, bias=False)
          )
          (norm2): LayerNorm((128,), eps=1e-05, elementwise_affine=True)
        )
      )
      (4): TransformerBlock(
        (self_attn): TransformerLayer(
          (q_proj): Linear(in_features=128, out_features=128, bias=False)
          (k_proj): Linear(in_features=128, out_features=128, bias=False)
          (v_proj): Linear(in_features=128, out_features=128, bias=False)
          (merge): Linear(in_features=128, out_features=128, bias=False)
          (norm1): LayerNorm((128,), eps=1e-05, elementwise_affine=True)
        )
        (cross_attn_ffn): TransformerLayer(
          (q_proj): Linear(in_features=128, out_features=128, bias=False)
          (k_proj): Linear(in_features=128, out_features=128, bias=False)
          (v_proj): Linear(in_features=128, out_features=128, bias=False)
          (merge): Linear(in_features=128, out_features=128, bias=False)
          (norm1): LayerNorm((128,), eps=1e-05, elementwise_affine=True)
          (mlp): Sequential(
            (0): Linear(in_features=256, out_features=1024, bias=False)
            (1): GELU(approximate='none')
            (2): Linear(in_features=1024, out_features=128, bias=False)
          )
          (norm2): LayerNorm((128,), eps=1e-05, elementwise_affine=True)
        )
      )
      (5): TransformerBlock(
        (self_attn): TransformerLayer(
          (q_proj): Linear(in_features=128, out_features=128, bias=False)
          (k_proj): Linear(in_features=128, out_features=128, bias=False)
          (v_proj): Linear(in_features=128, out_features=128, bias=False)
          (merge): Linear(in_features=128, out_features=128, bias=False)
          (norm1): LayerNorm((128,), eps=1e-05, elementwise_affine=True)
        )
        (cross_attn_ffn): TransformerLayer(
          (q_proj): Linear(in_features=128, out_features=128, bias=False)
          (k_proj): Linear(in_features=128, out_features=128, bias=False)
          (v_proj): Linear(in_features=128, out_features=128, bias=False)
          (merge): Linear(in_features=128, out_features=128, bias=False)
          (norm1): LayerNorm((128,), eps=1e-05, elementwise_affine=True)
          (mlp): Sequential(
            (0): Linear(in_features=256, out_features=1024, bias=False)
            (1): GELU(approximate='none')
            (2): Linear(in_features=1024, out_features=128, bias=False)
          )
          (norm2): LayerNorm((128,), eps=1e-05, elementwise_affine=True)
        )
      )
    )
  )
  (feature_flow_attn): FeatureFlowAttention(
    (q_proj): Linear(in_features=128, out_features=128, bias=True)
    (k_proj): Linear(in_features=128, out_features=128, bias=True)
  )
  (upsampler): Sequential(
    (0): Conv2d(130, 256, kernel_size=(3, 3), stride=(1, 1), padding=(1, 1))
    (1): ReLU(inplace=True)
    (2): Conv2d(256, 576, kernel_size=(1, 1), stride=(1, 1))
  )
)
It is not distributed train
Use 1 GPU
Number of params: 4680288
ImageSize =  [436, 1024]
Number of training images: 2082
Start training
torch version: 1.13.1+cpu
pytorch version: 1.13.1+cpu
Args =  Namespace(attention_type='swin', attn_splits_list=[2], batch_size=4, checkpoint_dir='checkpoints/sintel-gmflow', corr_radius_list=[-1], count_time=Fals
…
or=8, num_transformer_layers=6, num_head=1, attention_type='swin', ffn_dim_expansion=4, attn_splits_list=[2], corr_radius_list=[-1], prop_radius_list=[-1], gamma=0.9, eval=False, save_eval_to_file=False, evaluate_matched_unmatched=False, inference_dir=None, inference_size=None, dir_paired_data=False, save_flo_flow=False, pred_bidir_flow=False, fwd_bwd_consistency_check=False, submission=False, output_path='output', save_vis_flow=False, no_save_flo=False, local_rank=0, distributed=False, launcher='none', gpu_ids=0, count_time=False)
Model definition:
GMFlow(
  (backbone): CNNEncoder(
    (conv1): Conv2d(3, 64, kernel_size=(7, 7), stride=(2, 2), padding=(3, 3), bias=False)
    (norm1): InstanceNorm2d(64, eps=1e-05, momentum=0.1, affine=False, track_running_stats=False)
    (relu1): ReLU(inplace=True)
    (layer1): Sequential(
      (0): ResidualBlock(
        (conv1): Conv2d(64, 64, kernel_size=(3, 3), stride=(1, 1), padding=(1, 1), bias=False)
        (conv2): Conv2d(64, 64, kernel_size=(3, 3), stride=(1, 1), padding=(1, 1), bias=False)
        (relu): ReLU(inplace=True)
        (norm1): InstanceNorm2d(64, eps=1e-05, momentum=0.1, affine=False, track_running_stats=False)
        (norm2): InstanceNorm2d(64, eps=1e-05, momentum=0.1, affine=False, track_running_stats=False)
      )
      (1): ResidualBlock(
        (conv1): Conv2d(64, 64, kernel_size=(3, 3), stride=(1, 1), padding=(1, 1), bias=False)
        (conv2): Conv2d(64, 64, kernel_size=(3, 3), stride=(1, 1), padding=(1, 1), bias=False)
        (relu): ReLU(inplace=True)
        (norm1): InstanceNorm2d(64, eps=1e-05, momentum=0.1, affine=False, track_running_stats=False)
        (norm2): InstanceNorm2d(64, eps=1e-05, momentum=0.1, affine=False, track_running_stats=False)
      )
    )
    (layer2): Sequential(
      (0): ResidualBlock(
        (conv1): Conv2d(64, 96, kernel_size=(3, 3), stride=(2, 2), padding=(1, 1), bias=False)
        (conv2): Conv2d(96, 96, kernel_size=(3, 3), stride=(1, 1), padding=(1, 1), bias=False)
        (relu): ReLU(inplace=True)
        (norm1): InstanceNorm2d(96, eps=1e-05, momentum=0.1, affine=False, track_running_stats=False)
        (norm2): InstanceNorm2d(96, eps=1e-05, momentum=0.1, affine=False, track_running_stats=False)
        (norm3): InstanceNorm2d(96, eps=1e-05, momentum=0.1, affine=False, track_running_stats=False)
        (downsample): Sequential(
          (0): Conv2d(64, 96, kernel_size=(1, 1), stride=(2, 2))
          (1): InstanceNorm2d(96, eps=1e-05, momentum=0.1, affine=False, track_running_stats=False)
        )
      )
      (1): ResidualBlock(
        (conv1): Conv2d(96, 96, kernel_size=(3, 3), stride=(1, 1), padding=(1, 1), bias=False)
        (conv2): Conv2d(96, 96, kernel_size=(3, 3), stride=(1, 1), padding=(1, 1), bias=False)
        (relu): ReLU(inplace=True)
        (norm1): InstanceNorm2d(96, eps=1e-05, momentum=0.1, affine=False, track_running_stats=False)
        (norm2): InstanceNorm2d(96, eps=1e-05, momentum=0.1, affine=False, track_running_stats=False)
      )
    )
    (layer3): Sequential(
      (0): ResidualBlock(
        (conv1): Conv2d(96, 128, kernel_size=(3, 3), stride=(2, 2), padding=(1, 1), bias=False)
        (conv2): Conv2d(128, 128, kernel_size=(3, 3), stride=(1, 1), padding=(1, 1), bias=False)
        (relu): ReLU(inplace=True)
        (norm1): InstanceNorm2d(128, eps=1e-05, momentum=0.1, affine=False, track_running_stats=False)
        (norm2): InstanceNorm2d(128, eps=1e-05, momentum=0.1, affine=False, track_running_stats=False)
        (norm3): InstanceNorm2d(128, eps=1e-05, momentum=0.1, affine=False, track_running_stats=False)
        (downsample): Sequential(
          (0): Conv2d(96, 128, kernel_size=(1, 1), stride=(2, 2))
          (1): InstanceNorm2d(128, eps=1e-05, momentum=0.1, affine=False, track_running_stats=False)
        )
      )
      (1): ResidualBlock(
        (conv1): Conv2d(128, 128, kernel_size=(3, 3), stride=(1, 1), padding=(1, 1), bias=False)
        (conv2): Conv2d(128, 128, kernel_size=(3, 3), stride=(1, 1), padding=(1, 1), bias=False)
        (relu): ReLU(inplace=True)
        (norm1): InstanceNorm2d(128, eps=1e-05, momentum=0.1, affine=False, track_running_stats=False)
        (norm2): InstanceNorm2d(128, eps=1e-05, momentum=0.1, affine=False, track_running_stats=False)
      )
    )
    (conv2): Conv2d(128, 128, kernel_size=(1, 1), stride=(1, 1))
  )
  (transformer): FeatureTransformer(
    (layers): ModuleList(
      (0): TransformerBlock(
        (self_attn): TransformerLayer(
          (q_proj): Linear(in_features=128, out_features=128, bias=False)
          (k_proj): Linear(in_features=128, out_features=128, bias=False)
          (v_proj): Linear(in_features=128, out_features=128, bias=False)
          (merge): Linear(in_features=128, out_features=128, bias=False)
          (norm1): LayerNorm((128,), eps=1e-05, elementwise_affine=True)
        )
        (cross_attn_ffn): TransformerLayer(
          (q_proj): Linear(in_features=128, out_features=128, bias=False)
          (k_proj): Linear(in_features=128, out_features=128, bias=False)
          (v_proj): Linear(in_features=128, out_features=128, bias=False)
          (merge): Linear(in_features=128, out_features=128, bias=False)
          (norm1): LayerNorm((128,), eps=1e-05, elementwise_affine=True)
          (mlp): Sequential(
            (0): Linear(in_features=256, out_features=1024, bias=False)
            (1): GELU(approximate=none)
            (2): Linear(in_features=1024, out_features=128, bias=False)
          )
          (norm2): LayerNorm((128,), eps=1e-05, elementwise_affine=True)
        )
      )
      (1): TransformerBlock(
        (self_attn): TransformerLayer(
          (q_proj): Linear(in_features=128, out_features=128, bias=False)
          (k_proj): Linear(in_features=128, out_features=128, bias=False)
          (v_proj): Linear(in_features=128, out_features=128, bias=False)
          (merge): Linear(in_features=128, out_features=128, bias=False)
          (norm1): LayerNorm((128,), eps=1e-05, elementwise_affine=True)
        )
        (cross_attn_ffn): TransformerLayer(
          (q_proj): Linear(in_features=128, out_features=128, bias=False)
          (k_proj): Linear(in_features=128, out_features=128, bias=False)
          (v_proj): Linear(in_features=128, out_features=128, bias=False)
          (merge): Linear(in_features=128, out_features=128, bias=False)
          (norm1): LayerNorm((128,), eps=1e-05, elementwise_affine=True)
          (mlp): Sequential(
            (0): Linear(in_features=256, out_features=1024, bias=False)
            (1): GELU(approximate=none)
            (2): Linear(in_features=1024, out_features=128, bias=False)
          )
          (norm2): LayerNorm((128,), eps=1e-05, elementwise_affine=True)
        )
      )
      (2): TransformerBlock(
        (self_attn): TransformerLayer(
          (q_proj): Linear(in_features=128, out_features=128, bias=False)
          (k_proj): Linear(in_features=128, out_features=128, bias=False)
          (v_proj): Linear(in_features=128, out_features=128, bias=False)
          (merge): Linear(in_features=128, out_features=128, bias=False)
          (norm1): LayerNorm((128,), eps=1e-05, elementwise_affine=True)
        )
        (cross_attn_ffn): TransformerLayer(
          (q_proj): Linear(in_features=128, out_features=128, bias=False)
          (k_proj): Linear(in_features=128, out_features=128, bias=False)
          (v_proj): Linear(in_features=128, out_features=128, bias=False)
          (merge): Linear(in_features=128, out_features=128, bias=False)
          (norm1): LayerNorm((128,), eps=1e-05, elementwise_affine=True)
          (mlp): Sequential(
            (0): Linear(in_features=256, out_features=1024, bias=False)
            (1): GELU(approximate=none)
            (2): Linear(in_features=1024, out_features=128, bias=False)
          )
          (norm2): LayerNorm((128,), eps=1e-05, elementwise_affine=True)
        )
      )
      (3): TransformerBlock(
        (self_attn): TransformerLayer(
          (q_proj): Linear(in_features=128, out_features=128, bias=False)
          (k_proj): Linear(in_features=128, out_features=128, bias=False)
          (v_proj): Linear(in_features=128, out_features=128, bias=False)
          (merge): Linear(in_features=128, out_features=128, bias=False)
          (norm1): LayerNorm((128,), eps=1e-05, elementwise_affine=True)
        )
        (cross_attn_ffn): TransformerLayer(
          (q_proj): Linear(in_features=128, out_features=128, bias=False)
          (k_proj): Linear(in_features=128, out_features=128, bias=False)
          (v_proj): Linear(in_features=128, out_features=128, bias=False)
          (merge): Linear(in_features=128, out_features=128, bias=False)
          (norm1): LayerNorm((128,), eps=1e-05, elementwise_affine=True)
          (mlp): Sequential(
            (0): Linear(in_features=256, out_features=1024, bias=False)
            (1): GELU(approximate=none)
            (2): Linear(in_features=1024, out_features=128, bias=False)
          )
          (norm2): LayerNorm((128,), eps=1e-05, elementwise_affine=True)
        )
      )
      (4): TransformerBlock(
        (self_attn): TransformerLayer(
          (q_proj): Linear(in_features=128, out_features=128, bias=False)
          (k_proj): Linear(in_features=128, out_features=128, bias=False)
          (v_proj): Linear(in_features=128, out_features=128, bias=False)
          (merge): Linear(in_features=128, out_features=128, bias=False)
          (norm1): LayerNorm((128,), eps=1e-05, elementwise_affine=True)
        )
        (cross_attn_ffn): TransformerLayer(
          (q_proj): Linear(in_features=128, out_features=128, bias=False)
          (k_proj): Linear(in_features=128, out_features=128, bias=False)
          (v_proj): Linear(in_features=128, out_features=128, bias=False)
          (merge): Linear(in_features=128, out_features=128, bias=False)
          (norm1): LayerNorm((128,), eps=1e-05, elementwise_affine=True)
          (mlp): Sequential(
            (0): Linear(in_features=256, out_features=1024, bias=False)
            (1): GELU(approximate=none)
            (2): Linear(in_features=1024, out_features=128, bias=False)
          )
          (norm2): LayerNorm((128,), eps=1e-05, elementwise_affine=True)
        )
      )
      (5): TransformerBlock(
        (self_attn): TransformerLayer(
          (q_proj): Linear(in_features=128, out_features=128, bias=False)
          (k_proj): Linear(in_features=128, out_features=128, bias=False)
          (v_proj): Linear(in_features=128, out_features=128, bias=False)
          (merge): Linear(in_features=128, out_features=128, bias=False)
          (norm1): LayerNorm((128,), eps=1e-05, elementwise_affine=True)
        )
        (cross_attn_ffn): TransformerLayer(
          (q_proj): Linear(in_features=128, out_features=128, bias=False)
          (k_proj): Linear(in_features=128, out_features=128, bias=False)
          (v_proj): Linear(in_features=128, out_features=128, bias=False)
          (merge): Linear(in_features=128, out_features=128, bias=False)
          (norm1): LayerNorm((128,), eps=1e-05, elementwise_affine=True)
          (mlp): Sequential(
            (0): Linear(in_features=256, out_features=1024, bias=False)
            (1): GELU(approximate=none)
            (2): Linear(in_features=1024, out_features=128, bias=False)
          )
          (norm2): LayerNorm((128,), eps=1e-05, elementwise_affine=True)
        )
      )
    )
  )
  (feature_flow_attn): FeatureFlowAttention(
    (q_proj): Linear(in_features=128, out_features=128, bias=True)
    (k_proj): Linear(in_features=128, out_features=128, bias=True)
  )
  (upsampler): Sequential(
    (0): Conv2d(130, 256, kernel_size=(3, 3), stride=(1, 1), padding=(1, 1))
    (1): ReLU(inplace=True)
    (2): Conv2d(256, 576, kernel_size=(1, 1), stride=(1, 1))
  )
)
It is not distributed train
Current GPU Num =  1
GPU Name =  NVIDIA GeForce RTX 2050
Number of params: 4680288
ImageSize =  [436, 1024]
Number of training images: 2082
Start training
torch version:  1.12.0+cu116
pytorch version: 1.12.0+cu116
Model definition:
GMFlow(
  (backbone): CNNEncoder(
    (conv1): Conv2d(4, 64, kernel_size=(7, 7), stride=(2, 2), padding=(3, 3), bias=False)
    (norm1): InstanceNorm2d(64, eps=1e-05, momentum=0.1, affine=False, track_running_stats=False)
    (relu1): ReLU(inplace=True)
    (layer1): Sequential(
      (0): ResidualBlock(
        (conv1): Conv2d(64, 64, kernel_size=(3, 3), stride=(1, 1), padding=(1, 1), bias=False)
        (conv2): Conv2d(64, 64, kernel_size=(3, 3), stride=(1, 1), padding=(1, 1), bias=False)
        (relu): ReLU(inplace=True)
        (norm1): InstanceNorm2d(64, eps=1e-05, momentum=0.1, affine=False, track_running_stats=False)
        (norm2): InstanceNorm2d(64, eps=1e-05, momentum=0.1, affine=False, track_running_stats=False)
      )
      (1): ResidualBlock(
        (conv1): Conv2d(64, 64, kernel_size=(3, 3), stride=(1, 1), padding=(1, 1), bias=False)
        (conv2): Conv2d(64, 64, kernel_size=(3, 3), stride=(1, 1), padding=(1, 1), bias=False)
        (relu): ReLU(inplace=True)
        (norm1): InstanceNorm2d(64, eps=1e-05, momentum=0.1, affine=False, track_running_stats=False)
        (norm2): InstanceNorm2d(64, eps=1e-05, momentum=0.1, affine=False, track_running_stats=False)
      )
    )
    (layer2): Sequential(
      (0): ResidualBlock(
        (conv1): Conv2d(64, 96, kernel_size=(3, 3), stride=(2, 2), padding=(1, 1), bias=False)
        (conv2): Conv2d(96, 96, kernel_size=(3, 3), stride=(1, 1), padding=(1, 1), bias=False)
        (relu): ReLU(inplace=True)
        (norm1): InstanceNorm2d(96, eps=1e-05, momentum=0.1, affine=False, track_running_stats=False)
        (norm2): InstanceNorm2d(96, eps=1e-05, momentum=0.1, affine=False, track_running_stats=False)
        (norm3): InstanceNorm2d(96, eps=1e-05, momentum=0.1, affine=False, track_running_stats=False)
        (downsample): Sequential(
          (0): Conv2d(64, 96, kernel_size=(1, 1), stride=(2, 2))
          (1): InstanceNorm2d(96, eps=1e-05, momentum=0.1, affine=False, track_running_stats=False)
        )
      )
      (1): ResidualBlock(
        (conv1): Conv2d(96, 96, kernel_size=(3, 3), stride=(1, 1), padding=(1, 1), bias=False)
        (conv2): Conv2d(96, 96, kernel_size=(3, 3), stride=(1, 1), padding=(1, 1), bias=False)
        (relu): ReLU(inplace=True)
        (norm1): InstanceNorm2d(96, eps=1e-05, momentum=0.1, affine=False, track_running_stats=False)
        (norm2): InstanceNorm2d(96, eps=1e-05, momentum=0.1, affine=False, track_running_stats=False)
      )
    )
    (layer3): Sequential(
      (0): ResidualBlock(
        (conv1): Conv2d(96, 128, kernel_size=(3, 3), stride=(2, 2), padding=(1, 1), bias=False)
        (conv2): Conv2d(128, 128, kernel_size=(3, 3), stride=(1, 1), padding=(1, 1), bias=False)
        (relu): ReLU(inplace=True)
        (norm1): InstanceNorm2d(128, eps=1e-05, momentum=0.1, affine=False, track_running_stats=False)
        (norm2): InstanceNorm2d(128, eps=1e-05, momentum=0.1, affine=False, track_running_stats=False)
        (norm3): InstanceNorm2d(128, eps=1e-05, momentum=0.1, affine=False, track_running_stats=False)
        (downsample): Sequential(
          (0): Conv2d(96, 128, kernel_size=(1, 1), stride=(2, 2))
          (1): InstanceNorm2d(128, eps=1e-05, momentum=0.1, affine=False, track_running_stats=False)
        )
      )
      (1): ResidualBlock(
        (conv1): Conv2d(128, 128, kernel_size=(3, 3), stride=(1, 1), padding=(1, 1), bias=False)
        (conv2): Conv2d(128, 128, kernel_size=(3, 3), stride=(1, 1), padding=(1, 1), bias=False)
        (relu): ReLU(inplace=True)
        (norm1): InstanceNorm2d(128, eps=1e-05, momentum=0.1, affine=False, track_running_stats=False)
        (norm2): InstanceNorm2d(128, eps=1e-05, momentum=0.1, affine=False, track_running_stats=False)
      )
    )
    (conv2): Conv2d(128, 128, kernel_size=(1, 1), stride=(1, 1))
  )
  (transformer): FeatureTransformer(
    (layers): ModuleList(
      (0): TransformerBlock(
        (self_attn): TransformerLayer(
          (q_proj): Linear(in_features=128, out_features=128, bias=False)
          (k_proj): Linear(in_features=128, out_features=128, bias=False)
          (v_proj): Linear(in_features=128, out_features=128, bias=False)
          (merge): Linear(in_features=128, out_features=128, bias=False)
          (norm1): LayerNorm((128,), eps=1e-05, elementwise_affine=True)
        )
        (cross_attn_ffn): TransformerLayer(
          (q_proj): Linear(in_features=128, out_features=128, bias=False)
          (k_proj): Linear(in_features=128, out_features=128, bias=False)
          (v_proj): Linear(in_features=128, out_features=128, bias=False)
          (merge): Linear(in_features=128, out_features=128, bias=False)
          (norm1): LayerNorm((128,), eps=1e-05, elementwise_affine=True)
          (mlp): Sequential(
            (0): Linear(in_features=256, out_features=1024, bias=False)
            (1): GELU(approximate=none)
            (2): Linear(in_features=1024, out_features=128, bias=False)
          )
          (norm2): LayerNorm((128,), eps=1e-05, elementwise_affine=True)
        )
      )
      (1): TransformerBlock(
        (self_attn): TransformerLayer(
          (q_proj): Linear(in_features=128, out_features=128, bias=False)
          (k_proj): Linear(in_features=128, out_features=128, bias=False)
          (v_proj): Linear(in_features=128, out_features=128, bias=False)
          (merge): Linear(in_features=128, out_features=128, bias=False)
          (norm1): LayerNorm((128,), eps=1e-05, elementwise_affine=True)
        )
        (cross_attn_ffn): TransformerLayer(
          (q_proj): Linear(in_features=128, out_features=128, bias=False)
          (k_proj): Linear(in_features=128, out_features=128, bias=False)
          (v_proj): Linear(in_features=128, out_features=128, bias=False)
          (merge): Linear(in_features=128, out_features=128, bias=False)
          (norm1): LayerNorm((128,), eps=1e-05, elementwise_affine=True)
          (mlp): Sequential(
            (0): Linear(in_features=256, out_features=1024, bias=False)
            (1): GELU(approximate=none)
            (2): Linear(in_features=1024, out_features=128, bias=False)
          )
          (norm2): LayerNorm((128,), eps=1e-05, elementwise_affine=True)
        )
      )
      (2): TransformerBlock(
        (self_attn): TransformerLayer(
          (q_proj): Linear(in_features=128, out_features=128, bias=False)
          (k_proj): Linear(in_features=128, out_features=128, bias=False)
          (v_proj): Linear(in_features=128, out_features=128, bias=False)
          (merge): Linear(in_features=128, out_features=128, bias=False)
          (norm1): LayerNorm((128,), eps=1e-05, elementwise_affine=True)
        )
        (cross_attn_ffn): TransformerLayer(
          (q_proj): Linear(in_features=128, out_features=128, bias=False)
          (k_proj): Linear(in_features=128, out_features=128, bias=False)
          (v_proj): Linear(in_features=128, out_features=128, bias=False)
          (merge): Linear(in_features=128, out_features=128, bias=False)
          (norm1): LayerNorm((128,), eps=1e-05, elementwise_affine=True)
          (mlp): Sequential(
            (0): Linear(in_features=256, out_features=1024, bias=False)
            (1): GELU(approximate=none)
            (2): Linear(in_features=1024, out_features=128, bias=False)
          )
          (norm2): LayerNorm((128,), eps=1e-05, elementwise_affine=True)
        )
      )
      (3): TransformerBlock(
        (self_attn): TransformerLayer(
          (q_proj): Linear(in_features=128, out_features=128, bias=False)
          (k_proj): Linear(in_features=128, out_features=128, bias=False)
          (v_proj): Linear(in_features=128, out_features=128, bias=False)
          (merge): Linear(in_features=128, out_features=128, bias=False)
          (norm1): LayerNorm((128,), eps=1e-05, elementwise_affine=True)
        )
        (cross_attn_ffn): TransformerLayer(
          (q_proj): Linear(in_features=128, out_features=128, bias=False)
          (k_proj): Linear(in_features=128, out_features=128, bias=False)
          (v_proj): Linear(in_features=128, out_features=128, bias=False)
          (merge): Linear(in_features=128, out_features=128, bias=False)
          (norm1): LayerNorm((128,), eps=1e-05, elementwise_affine=True)
          (mlp): Sequential(
            (0): Linear(in_features=256, out_features=1024, bias=False)
            (1): GELU(approximate=none)
            (2): Linear(in_features=1024, out_features=128, bias=False)
          )
          (norm2): LayerNorm((128,), eps=1e-05, elementwise_affine=True)
        )
      )
      (4): TransformerBlock(
        (self_attn): TransformerLayer(
          (q_proj): Linear(in_features=128, out_features=128, bias=False)
          (k_proj): Linear(in_features=128, out_features=128, bias=False)
          (v_proj): Linear(in_features=128, out_features=128, bias=False)
          (merge): Linear(in_features=128, out_features=128, bias=False)
          (norm1): LayerNorm((128,), eps=1e-05, elementwise_affine=True)
        )
        (cross_attn_ffn): TransformerLayer(
          (q_proj): Linear(in_features=128, out_features=128, bias=False)
          (k_proj): Linear(in_features=128, out_features=128, bias=False)
          (v_proj): Linear(in_features=128, out_features=128, bias=False)
          (merge): Linear(in_features=128, out_features=128, bias=False)
          (norm1): LayerNorm((128,), eps=1e-05, elementwise_affine=True)
          (mlp): Sequential(
            (0): Linear(in_features=256, out_features=1024, bias=False)
            (1): GELU(approximate=none)
            (2): Linear(in_features=1024, out_features=128, bias=False)
          )
          (norm2): LayerNorm((128,), eps=1e-05, elementwise_affine=True)
        )
      )
      (5): TransformerBlock(
        (self_attn): TransformerLayer(
          (q_proj): Linear(in_features=128, out_features=128, bias=False)
          (k_proj): Linear(in_features=128, out_features=128, bias=False)
          (v_proj): Linear(in_features=128, out_features=128, bias=False)
          (merge): Linear(in_features=128, out_features=128, bias=False)
          (norm1): LayerNorm((128,), eps=1e-05, elementwise_affine=True)
        )
        (cross_attn_ffn): TransformerLayer(
          (q_proj): Linear(in_features=128, out_features=128, bias=False)
          (k_proj): Linear(in_features=128, out_features=128, bias=False)
          (v_proj): Linear(in_features=128, out_features=128, bias=False)
          (merge): Linear(in_features=128, out_features=128, bias=False)
          (norm1): LayerNorm((128,), eps=1e-05, elementwise_affine=True)
          (mlp): Sequential(
            (0): Linear(in_features=256, out_features=1024, bias=False)
            (1): GELU(approximate=none)
            (2): Linear(in_features=1024, out_features=128, bias=False)
          )
          (norm2): LayerNorm((128,), eps=1e-05, elementwise_affine=True)
        )
      )
    )
  )
  (feature_flow_attn): FeatureFlowAttention(
    (q_proj): Linear(in_features=128, out_features=128, bias=True)
    (k_proj): Linear(in_features=128, out_features=128, bias=True)
  )
  (upsampler): Sequential(
    (0): Conv2d(130, 256, kernel_size=(3, 3), stride=(1, 1), padding=(1, 1))
    (1): ReLU(inplace=True)
    (2): Conv2d(256, 576, kernel_size=(1, 1), stride=(1, 1))
  )
)E:\Paper_SparseSurfelFusion4D\TestCode\GMFlow_RGBD_Python\pythonProject\GMFlowRGBD\Position.py:39: UserWarning: __floordiv__ is deprecated, and its behavior will change in a future version of pytorch. It currently rounds toward 0 (like the 'trunc' function NOT 'floor'). This results in incorrect rounding for negative values. To keep the current behavior, use torch.div(a, b, rounding_mode='trunc'), or for actual floor division, use torch.div(a, b, rounding_mode='floor').
…
